…
OOOOOOOOOOOOOOOO                OOOOOOOOOOOOOOOO                OOOOOOOOOOOOOOOO                OOOOOOOOOOOOOOOO                OOOOOOOOOOOOOOOO                OOOOOOOOOOOOOOOO                
OOOOOOOOOOOOOOOO                OOOOOOOOOOOOOOOO                OOOOOOOOOOOOOOOO                OOOOOOOOOOOOOOOO                OOOOOOOOOOOOOOOO                




Model: "sequential"
_________________________________________________________________
 Layer (type)                Output Shape              Param #   
=================================================================
 conv1d (Conv1D)             (None, 60, 96)            1824      
                                                                 
 conv1d_1 (Conv1D)           (None, 60, 96)            9312      
                                                                 
 conv1d_2 (Conv1D)           (None, 60, 32)            3104      
                                                                 
 dropout (Dropout)           (None, 60, 32)            0         
                                                                 
 conv1d_3 (Conv1D)           (None, 60, 32)            1056      
                                                                 
 max_pooling1d (MaxPooling1  (None, 30, 32)            0         
 D)                                                              
                                                                 
 lstm (LSTM)                 (None, 128)               82432     
                                                                 
 dropout_1 (Dropout)         (None, 128)               0         
                                                                 
 dense (Dense)               (None, 60)                7740      
                                                                 
=================================================================
Total params: 105468 (411.98 KB)
Trainable params: 105468 (411.98 KB)
Non-trainable params: 0 (0.00 Byte)
_________________________________________________________________
Model: "sequential"
_________________________________________________________________
 Layer (type)                Output Shape              Param #   
=================================================================
 conv1d (Conv1D)             (None, 59, 64)            2368      
                                                                 
 conv1d_1 (Conv1D)           (None, 58, 128)           16512     
                                                                 
 dropout (Dropout)           (None, 58, 128)           0         
                                                                 
 max_pooling1d (MaxPooling1  (None, 29, 128)           0         
 D)                                                              
                                                                 
 lstm (LSTM)                 (None, 64)                49408     
                                                                 
 dropout_1 (Dropout)         (None, 64)                0         
                                                                 
 dense (Dense)               (None, 60)                3900      
                                                                 
=================================================================
Total params: 72188 (281.98 KB)
Trainable params: 72188 (281.98 KB)
Non-trainable params: 0 (0.00 Byte)
_________________________________________________________________
Model: "sequential"
_________________________________________________________________
 Layer (type)                Output Shape              Param #   
=================================================================
 conv1d (Conv1D)             (None, 60, 32)            608       
                                                                 
 conv1d_1 (Conv1D)           (None, 58, 96)            9312      
                                                                 
 conv1d_2 (Conv1D)           (None, 56, 64)            18496     
                                                                 
 dropout (Dropout)           (None, 56, 64)            0         
                                                                 
 conv1d_3 (Conv1D)           (None, 54, 96)            18528     
                                                                 
 max_pooling1d (MaxPooling1  (None, 27, 96)            0         
 D)                                                              
                                                                 
 lstm (LSTM)                 (None, 64)                41216     
                                                                 
 dropout_1 (Dropout)         (None, 64)                0         
                                                                 
 dense (Dense)               (None, 60)                3900      
                                                                 
=================================================================
Total params: 92060 (359.61 KB)
Trainable params: 92060 (359.61 KB)
Non-trainable params: 0 (0.00 Byte)






